Training
150
_________________________________________________________________
Layer (type)                 Output Shape              Param #
=================================================================
block1_conv1 (Conv2D)        (None, 128, 128, 4)       40
_________________________________________________________________
block1_conv2 (Conv2D)        (None, 128, 128, 4)       148
_________________________________________________________________
block1_pool (AveragePooling2 (None, 64, 64, 4)         0
_________________________________________________________________
block2_conv1 (Conv2D)        (None, 64, 64, 16)        592
_________________________________________________________________
block2_conv2 (Conv2D)        (None, 64, 64, 16)        2320
_________________________________________________________________
block2_pool (AveragePooling2 (None, 32, 32, 16)        0
_________________________________________________________________
block3_conv1 (Conv2D)        (None, 32, 32, 32)        4640
_________________________________________________________________
block3_conv2 (Conv2D)        (None, 32, 32, 32)        9248
_________________________________________________________________
block3_pool (AveragePooling2 (None, 16, 16, 32)        0
_________________________________________________________________
flatten (Flatten)            (None, 8192)              0
_________________________________________________________________
fc1 (Dense)                  (None, 512)               4194816
_________________________________________________________________
fc2 (Dense)                  (None, 512)               262656
_________________________________________________________________
fc3 (Dense)                  (None, 1)                 513
=================================================================
Total params: 4,474,973
Trainable params: 4,474,973
Non-trainable params: 0
_________________________________________________________________
Epoch 1/150
2018-01-15 20:33:31.373946: I tensorflow/core/platform/cpu_feature_guard.cc:137] Your CPU supports instructions that this TensorFlow binary was not compiled to use: SSE4.1 SSE4.2 AVX
…
